wake/model/apollo.tflite (tflite, 206964 bytes, 9 tensors)

arith.constant f4 [1, 32]
-0.33911526 0.06684679 -0.35086116 -0.32753795 -0.10182027 -0.039866026 -0.2979672 -0.32816312
-0.28896317 -0.31688476 0.12693965 -0.33867726 0.03146771 0.002001386 -0.34911907 -0.024704164
0.15588997 -0.34741852 0.03683973 -0.06673256 0.19583283 -0.14102986 0.06976072 0.13597608
0.08035068 0.12252407 0.16880447 0.10301877 0.1546957 0.17255117 -0.06800834 0.19218126
00000000: 84a0 adbe f8e6 883d 13a4 b3be 0eb3 a7be
00000010: 2587 d0bd 8f4a 23bd 288f 98be ff04 a8be
00000020: fbf2 93be b83e a2be 78fc 013e 1b67 adbe
00000030: 49e4 003d af29 033b bcbf b2be 6360 cabc
00000040: 9fa1 1f3e d7e0 b1be 42e5 163d 15ab 88bd
00000050: 6788 483e 226a 10be b5de 8e3d 503d 0b3e
00000060: e68e a43d e6ed fa3d 14db 2c3e 81fb d23d
00000070: 8d68 1e3e 41b1 303e f547 8bbd 2acb 443e

arith.constant1 f4 [32, 32]
0.046138827 -0.110173695 -0.0701555 -0.071917824 0.046449073 0.12454675 -0.17023562 0.085210636
0.09809228 0.027363893 -0.1247601 0.08646072 -0.14420064 -0.13164258 -0.12180258 -0.008835109
-0.03814514 0.15632097 -0.14043272 -0.056162547 -0.021316243 0.10079237 0.0002494302 -0.17037605
0.030092232 -0.100818574 -0.14038058 0.037336558 -0.035635635 0.16338214 0.13552913 0.020162983
0.15856545 0.026368579 0.03966381 0.037354633 0.007260604 -0.010549507 -0.140737 0.10791611
-0.102432854 0.15021828 0.02014428 -0.11020498 0.1512348 -0.12689723 0.052594952 -0.08627433
0.045184277 0.06973233 0.0868697 0.13051914 0.07203515 -0.0018306666 0.10911347 0.06075484
-0.16571409 -0.06266466 0.03015231 0.086030036 0.026036521 0.1443875 0.05670665 -0.0016484376
-0.10462404 0.034267664 0.11899804 -0.06722442 0.060640495 0.016392054 0.029928854 -0.02896859
0.0033150483 0.021202216 -0.12413563 0.073058136 -0.17168236 0.17079538 0.035426356 0.08206086
0.0017237088 0.17918058 -0.04621642 0.15394187 -0.18845628 -0.15950596 -0.08353637 -0.091487266
-0.12525487 -0.048237376 0.05079098 -0.009538819 -0.05406138 0.14272374 0.0830041 -0.17164099
0.16922791 -0.0010193763 0.1614644 -0.15185018 0.023496635 0.16689031 0.07274731 0.05437537
-0.03552433 -0.12615399 0.03681239 -0.034451287 0.029723087 0.16250059 -0.1378648 -0.1309974
0.05892198 0.19549648 0.087400034 -0.16806759 0.12758642 0.010403191 -0.090585396 0.013733549
-0.010733594 0.08663382 -0.12017968 -0.087147176 -0.090420485 -0.046034247 -0.044208415 -0.13723756
-0.11312099 -0.026013711 0.08683774 -0.15342642 -0.12165857 -0.0491675 0.15113787 0.11402283
0.10537959 0.05275937 0.106905594 -0.1344947 -0.10123115 0.04153595 -0.12295401 -0.12678182
-0.13415481 -0.11627261 0.11406274 -0.05405618 0.06912809 0.051215764 -0.07848727 0.04570145
0.032202303 -0.14059725 -0.0235149 0.1683145 -0.083117954 0.008459165 -0.099341795 0.08383454
0.12859881 0.0106856795 -0.0663928 -0.051951084 -0.070559256 0.006878297 0.065479115 -0.0855916
-0.18686026 0.11150405 0.06111968 -0.16260603 -0.07497357 0.0140195675 0.08817833 0.002765287
0.14334218 0.087654874 -0.0742275 0.11435338 -0.101796426 0.09897118 -0.05158016 0.009180284
0.1364024 -0.14053708 -0.15570784 -0.020895012 -0.033603217 0.12287257 -0.09970093 0.07882473
0.17510068 0.044658136 -0.07331861 0.111553036 0.056071114 0.15731718 0.11811935 0.122229114
-0.00016881576 0.048600886 0.09713557 0.0056023626 -0.15362282 0.10828663 -0.13355044 -0.14280102
0.038319934 0.14978772 -0.16383183 -0.17809023 -0.14002028 -0.14789397 -0.048277553 -0.059874833
0.031902008 -0.07036384 -0.0454467 0.12069019 -0.017403573 0.018522399 -0.0753294 -0.047939118
-0.014164778 -0.057662025 0.018978644 -0.17330639 -0.04882616 0.13231945 0.01054212 0.08406907
0.16365157 -0.16506064 0.11226451 -0.045770124 0.037920408 0.21777318 0.05875084 -0.035881184
0.11150013 0.018927664 -0.1547843 0.0314987 0.068894885 -0.06393924 -0.004456415 0.11048515
0.12817898 -0.1762371 0.028072888 0.05495459 -0.09445379 -0.022697944 -0.062389642 0.044064887
00000000: 11fc 3c3d bfa2 e1bd b0ad 8fbd a749 93bd
00000010: 6241 3e3d 5e12 ff3d 3f52 2ebe ea82 ae3d
00000020: 9be4 c83d 3e2a e03c 3982 ffbd 5112 b13d
00000030: 55a9 13be 50cd 06be a273 f9bd 22c1 10bc
00000040: 143e 1cbd 9b12 203e 98cd 0fbe b30a 66bd
00000050: 679f aebc 3b6c ce3d f4c5 8239 0f77 2ebe
00000060: fc83 f63c f879 cebd edbf 0fbe 38ee 183d
00000070: acf6 11bd a64d 273e 26c8 0a3e d72c a53c
00000080: fb5e 223e eb02 d83c 8576 223d 2c01 193d
00000090: 5cea ed3b d7d7 2cbc 5c1d 10be 1f03 dd3d
000000a0: 51c8 d1bd d2d2 193e 9e05 a53c 26b3 e1bd
000000b0: 4cdd 1a3e 59f1 01be ce6d 573d 99b0 b0bd
000000c0: 2613 393d d3cf 8e3d bee8 b13d cfa6 053e
000000d0: 2a87 933d faf2 efba e276 df3d 11da 783d
000000e0: f4b0 29be 5456 80bd fa01 f73c 8430 b03d
000000f0: 8b4a d53c 51da 133e 3b45 683d 6310 d8ba
00000100: 2145 d6bd 405c 0c3d 3fb5 f33d f5ac 89bd
00000110: 2b62 783d a148 863c 5b2d f53c 894f edbc
00000120: 4841 593b 45b0 ad3c d23a febd 819f 953d
00000130: 80cd 2fbe fce4 2e3e 3a1b 113d 860f a83d
00000140: 12ee e13a 1d7b 373e 6e4d 3dbd f0a2 1d3e
00000150: affa 40be 8855 23be 1e15 abbd ad5d bbbd
00000160: d042 00be 8e94 45bd 340a 503d b548 1cbc
00000170: 776f 5dbd 2c26 123e 0efe a93d a8c2 2fbe
00000180: 154a 2d3e 989c 85ba ec56 253e 9d7e 1bbe
00000190: 047c c03c 4be5 2a3e 8bfc 943d b5b8 5e3d
000001a0: f681 11bd 832e 01be 97c8 163d cb1c 0dbd
000001b0: d57d f33c 8e66 263e 6e2c 0dbe 2f24 06be
000001c0: 2d58 713d 3b30 483e cafe b23d e919 2cbe
000001d0: 04a6 023e 2572 2a3c d684 b9bd ae02 613c
000001e0: f5db 2fbc 126d b13d c420 f6bd 387a b2bd
000001f0: 602e b9bd 688e 3cbd e213 35bd 0188 0cbe
00000200: faab e7bd b51a d5bc fcd7 b13d d11b 1dbe
00000210: 2128 f9bd dc63 49bd e3c3 1a3e cd84 e93d
00000220: 41d1 d73d 361a 583d 52f1 da3d fbb8 09be
00000230: 4752 cfbd 9a21 2a3d 50cf fbbd 18d3 01be
00000240: e15f 09be 5620 eebd ba99 e93d 036a 5dbd
00000250: 0793 8d3d 9fc7 513d efbd a0bd 7231 3b3d
00000260: 90e6 033d baf8 0fbe 52a2 c0bc a35a 2c3e
00000270: bf39 aabd 4f98 0a3c b673 cbbd 71b1 ab3d
00000280: 68af 033e fd12 2f3c f3f8 87bd a9ca 54bd
00000290: 5f81 90bd 5663 e13b ea19 863d a64a afbd
000002a0: 4c58 3fbe 3c5c e43d a158 7a3d 3282 26be
000002b0: be8b 99bd 54b2 653c d796 b43d d139 353b
000002c0: 4bc8 123e 6684 b33d 9604 98bd 1b32 ea3d
000002d0: a57a d0bd 67b1 ca3d b845 53bd e768 163c
000002e0: 12ad 0b3e f4e8 0fbe e071 1fbe 042c abbc
000002f0: 87a3 09bd 9da4 fb3d 0030 ccbd dc6e a13d
00000300: 984d 333e 73eb 363d 1128 96bd eb75 e43d
00000310: d3aa 653d c117 213e 8fe8 f13d 4253 fa3d
00000320: 2304 31b9 b911 473d 04ef c63d 0694 b73b
00000330: 4d4f 1dbe 61c5 dd3d 72c1 08be 6e3a 12be
00000340: 5df5 1c3d f461 193e 88c3 27be 495d 36be
00000350: 7a61 0fbe 8471 17be afbe 45bd 503f 75bd
00000360: aeab 023d eb1a 90bd 5226 3abd 6b2c f73d
00000370: f091 8ebc 49bc 973c 4d46 9abd cf5b 44bd
00000380: 6313 68bc 042f 6cbd 1a79 9b3c 3b77 31be
00000390: f1fd 47bd c07e 073e dbb8 2c3c 682c ac3d
000003a0: 4794 273e a805 29be efea e53d 7479 3bbd
000003b0: 6e52 1b3d efff 5e3e b9a4 703d 26f8 12bd
000003c0: 2e5a e43d 300e 9b3c c77f 1ebe c804 013d
000003d0: c318 8d3d 94f2 82bd 1e07 92bb 0a46 e23d
000003e0: 5a41 033e 8077 34be 1df9 e53c 1018 613d
000003f0: fd70 c1bd 0af1 b9bc 488c 7fbd 627d 343d

arith.constant2 f4 [32, 1536]
0.010836769 -0.0025910595 0.007913411 0.0069549303 0.022647766 -0.022001998 0.003728585 -0.014469529
-0.016275954 0.021548824 0.015671745 0.024112066 0.004975859 -0.010729206 0.024070477 0.0024877961
0.012825084 0.033354398 0.006863745 0.020444706 0.017897556 0.0027907956 -0.009032268 0.018438427
0.015121264 0.012418465 0.018090032 0.0028873445 0.00070065825 0.011691822 -0.009629544 -0.0053934683
0.016988361 0.02441442 0.01903656 -0.022292705 -0.006789934 -0.007825338 0.011085524 0.021514455
-0.014559208 0.015136365 -0.015818099 -0.010467746 0.0032457202 -0.0076423027 5.78498e-05 0.00492
0.012672487 -0.0037890838 0.022120701 0.00895287 -0.0040699407 0.008199206 -0.002752441 -0.028652593
0.005636936 -0.007505619 -0.005589216 0.0122108245 -0.011790651 -0.0022646557 0.029054187 -0.020990571
0.00059619814 0.022451622 -0.004119385 0.0004387037 -0.007158353 -0.004859942 0.021883802 0.0033600805
0.0174912 0.014191251 -0.010014 -0.017931452 0.029672163 -0.013144821 0.013005803 -0.0059840637
0.010326914 -0.019651951 -0.005093664 0.03771052 -0.019881852 -0.0010999411 -0.007638111 0.0038267325
-0.013861728 -0.011290497 0.023195172 -0.028132418 -0.000490236 0.008579582 -0.008480674 -0.0041826367
-0.0017602703 -0.015319349 -0.025918363 0.016374432 0.017109567 -0.009359845 -0.005459588 -0.014923347
-0.015331513 -0.0051696 0.011681146 0.030152712 0.008556726 -0.008526117 -0.020112533 -0.021107027
-0.012519026 0.026715394 0.0012932682 0.01790558 0.023130765 -0.024167567 -0.011721883 -0.0046190894
0.016266674 0.018022895 -0.010646737 0.01194016 -0.0002556577 -0.0013339736 0.007112339 -0.019689703
-0.018409291 -0.015767273 -0.009897064 -0.010878062 0.015532101 -0.023333546 0.0044407514 0.0030618543
-0.022353116 -0.009102645 -0.025212249 -0.0031226042 0.018161492 0.003257749 0.00489523 -0.008178758
-0.016566861 0.033564918 -0.0033128432 -0.018122131 -0.031031283 0.025024513 -0.009158953 -0.016087385
0.024058402 -0.012007529 0.0013596265 -0.021222599 0.03406492 -0.014154916 0.02569726 0.015000075
-0.0043677497 0.010011928 0.0067003896 0.0036068538 -0.016764166 -0.031448927 -0.013079212 -0.0014924253
0.0037154993 -0.015699146 0.0029551417 0.0015463243 0.035718117 -0.03355678 0.021364063 -0.0065539316
0.007866984 -0.011886478 -0.022469554 0.013658899 0.0034246831 -0.016399223 0.002962674 -0.030901846
-0.017466033 0.018175365 -0.009947538 0.02085238 -0.0077946126 0.012080324 -0.010262628 -0.007491735
0.011521213 0.004531736 -0.016390903 -0.027149456 0.036906436 -0.010896695 0.005980775 0.0073212828
0.00235771 -0.0034796554 0.0028906814 0.014107987 -0.018772988 0.006550497 -0.0019813946 0.0054323087
-0.017241169 0.025805175 -0.022965765 0.0013345692 0.02151335 -0.026818052 0.020855103 0.014528333
-0.015594329 -0.0035694735 0.0078015137 -0.03648753 0.00962907 -0.014261812 -0.015472644 0.013045491
-0.0045995195 -0.0006897131 0.021142112 -0.009644285 0.023423111 0.0131060975 0.012944201 0.00024879404
-0.004561447 -0.007590115 -0.0157794 0.020648614 0.009252184 0.0033945795 -0.011923182 0.016597094
-0.009095716 0.019071383 -0.020811217 0.013916601 0.0039224396 0.0014340538 0.017431434 -0.008730904
0.0066209626 -0.027122537 -0.02069702 -0.0032816164 0.027306596 -0.024593795 0.012169289 0.0015703669
00000000: b48c 313c c4ce 29bb 40a7 013c 2fe6 e33b
00000010: cf87 b93c 893d b4bc 475b 743b 9a11 6dbc
00000020: 2655 85bc 2987 b03c 0862 803c ab86 c53c
00000030: 880c a33b 8dc9 2fbc 732f c53c 4b0a 233b
00000040: 4d20 523c 9f9e 083d 44e9 e03b a87b a73c
00000050: e59d 923c c8e5 363b 14fc 13bc 2f0c 973c
00000060: 2ebf 773c d176 4b3c 8c31 943c 9a39 3d3b
00000070: 61ac 373a 0e8f 3f3c 3cc5 1dbc b1bb b0bb
00000080: 2d2b 8b3c c000 c83c 8ff2 9b3c 319f b6bc
00000090: 187e debb d935 00bc 0fa0 353c 153f b03c
000000a0: bf89 6ebc 84fe 773c f594 81bc e980 2bbc
000000b0: 26b6 543b 486c fabb c0a3 7238 f437 a13b
000000c0: 43a0 4f3c 4752 78bb 7936 b53c 0faf 123c
000000d0: 235d 85bb f655 063c 4c62 34bb d8b8 eabc
000000e0: 0cb6 b83b b2f1 f5bb be25 b7bb e90f 483c
000000f0: 932d 41bc 9e6a 14bb 0c03 ee3c 6bf4 abbc
00000100: 2e4a 1c3a 77ec b73c e8fb 86bb d001 e639
00000110: 9e90 eabb 2640 9fbb a945 b33c cc34 5c3b
00000120: b449 8f3c 6c82 683c c311 24bc fbe4 92bc
00000130: 0913 f33c 605d 57bc 4b16 553c f715 c4bb
00000140: 3732 293c 21fd a0bc c0e8 a6bb 5976 1a3d
00000150: 44df a2bc e62b 90ba 1e49 fabb ebc9 7a3b
00000160: 4d1c 63bc c7fb 38bc cd03 be3c f575 e6bc
00000170: 2e83 00ba 6091 0c3c 86f2 0abc 800e 89bb
00000180: dfb8 e6ba 02fe 7abc bf52 d4bc ac23 863c
00000190: 5d29 8c3c 095a 19bc 58e6 b2bb 0e81 74bc
000001a0: 0731 7bbc bf65 a9bb 4762 3f3c d202 f73c
000001b0: 8331 0c3c 20b1 0bbc 0ac3 a4bc a5e8 acbc
000001c0: 9a1c 4dbc 3eda da3c e182 a93a b9ae 923c
000001d0: bb7c bd3c 10fb c5bc 240d 40bc bb5b 97bb
000001e0: b041 853c c0a4 933c a76f 2ebc a9a0 433c
000001f0: cc09 86b9 bad8 aeba a00e e93b 4d4c a1bc
00000200: 15cf 96bc 5e2a 81bc 4c27 22bc e639 32bc
00000210: 5a7a 7e3c fe25 bfbc b983 913b 64a9 483b
00000220: e21d b7bc 4323 15bc eb89 cebc 9ba4 4cbb
00000230: 69c7 943c f57f 553b 2a68 a03b 3300 06bc
00000240: 3ab7 87bc 5e7b 093d 491c 59bb dd74 94bc
00000250: 5135 febc 3500 cd3c 6f0f 16bc b1c9 83bc
00000260: 2016 c53c 3abb 44bc 7f35 b23a 04db adbc
00000270: a887 0b3d 05ea 67bc 0f83 d23c e0c2 753c
00000280: 571f 8fbb 1209 243c f18e db3b f760 6c3b
00000290: 0155 89bc 97d0 00bd 314a 56bc 7c9d c3ba
000002a0: bc7f 733b 7f9b 80bc 0dab 413b 09ae ca3a
000002b0: 294d 123d d672 09bd b003 af3c 5dc2 d6bb
000002c0: 86e4 003c 81bf 42bc 1212 b8bc 93c9 5f3c
000002d0: a670 603b aa57 86bc 6c29 423b de25 fdbc
000002e0: ed14 8fbc 81e4 943c 00fb 22bc 9cd2 aa3c
000002f0: f369 ffbb 8dec 453c 9524 28bc 3a7d f5bb
00000300: 78c3 3c3c f57e 943b 3746 86bc 8968 debc
00000310: 342b 173d 0d88 32bc 61fa c33b 5fe7 ef3b
00000320: cf83 1a3b ee0a 64bb 9671 3d3b 3025 673c
00000330: cfc9 99bc 8da5 d63b 49da 01bb 8201 b23b
00000340: 5a3d 8dbc 6065 d33c b322 bcbc b6ec ae3a
00000350: c43c b03c 88b1 dbbc 52d8 aa3c 3f08 6e3c
00000360: 5b7f 7fbc d4ed 69bb d7a3 ff3b f373 15bd
00000370: 3fc3 1d3c 60aa 69bc f980 7dbc c1bc 553c
00000380: 91b7 96bb ddcd 34ba 3932 ad3c 1003 1ebc
00000390: d3e1 bf3c f5ba 563c ea13 543c 9270 8239
000003a0: 3178 95bb 80b6 f8bb cd43 81bc 4827 a93c
000003b0: 7996 173c 9877 5e3b 7359 43bc a1f6 873c
000003c0: 3306 15bc 973b 9c3c 497c aabc 7502 643c
000003d0: cf87 803b dcf6 bb3a 5ecc 8e3c 110c 0fbc
000003e0: a9f4 d83b 1530 debc cc8c a9bc 6310 57bb
000003f0: 15b2 df3c ed78 c9bc b361 473c c5d4 cd3a

model_8/tf.__operators__.add/AddV2/y f4 [32]
-0.009541675 -0.007981085 -0.0052458374 -0.022311388 -0.0017607035 0.011976846 -0.008378876 -0.015578228
0.0064560357 0.0072018327 0.0020126137 0.0136871645 0.0055429637 -0.002199695 -0.012254004 -0.006492668
-0.0016549916 0.002020828 -0.0014000916 0.014679398 -0.015632594 0.0149111645 0.00885822 0.011341608
0.015983919 -0.0006906913 -0.021799376 0.013957076 -0.013576167 0.014083222 0.02093123 -0.022200596
00000000: b054 1cbc 19c3 02bc 46e5 abbb 5fc6 b6bc
00000010: 68c7 e6ba 883a 443c 8e47 09bc d33b 7fbc
00000020: 278d d33b 5afd eb3b 0ee6 033b 2140 603c
00000030: c0a1 b53b c228 10bb 05c5 48bc 72c0 d4bb
00000040: 4eec d8ba de6f 043b 4783 b7ba dc81 703c
00000050: ed0f 80bc f54d 743c 1122 113c 27d2 393c
00000060: b5f0 823c 820f 35ba 9b94 b2bc 38ac 643c
00000070: 926e 5ebc 50bd 663c f977 ab3c 06de b5bc

model_8/tf.__operators__.add_1/AddV2/y f4 [32]
-0.043251213 0.10041405 0.020268992 -0.1662104 0.03166384 0.11031456 0.09573031 -0.08275327
-0.109766535 -0.11978698 -0.03480305 -0.06587418 0.07067638 -0.031717088 -0.10266504 0.08912379
0.17979203 -0.1189322 -0.08912932 -0.06038542 0.17518315 -0.15207562 0.082027026 -0.17571399
-0.032469485 -0.10180245 0.07729532 0.11382431 -0.10484499 0.050003517 0.06379254 0.006401279
00000000: 2f28 31bd e2a5 cd3d 280b a63c 0f33 2abe
00000010: f1b1 013d 9aec e13d 410e c43d 8c7a a9bd
00000020: 47cd e0bd e052 f5bd a58d 0ebd 0be9 86bd
00000030: c7be 903d c7e9 01bd 0c42 d2bd 8986 b63d
00000040: 671b 383e ba92 f3bd 6f89 b6bd b456 77bd
00000050: 3663 333e b6b9 1bbe c9fd a73d 5eee 33be
00000060: b9fe 04bd ce7d d0bd 024d 9e3d b81c e93d
00000070: f8b8 d6bd 7dd0 4c3d aaa5 823d d2c1 d13b

model_8/tf.math.add_2/Add/y f4 [1, 32]
-0.008290928 0.0011805787 0.0030882105 -0.0063305898 0.012075658 0.027061554 0.018786866 -0.008634944
0.012280036 -0.0022219443 0.0039274525 0.009726008 -0.0020924874 0.021593995 -0.0056644417 0.0007027968
-0.006632466 0.00805332 -0.018355418 -0.0037211378 0.012377076 0.015588799 -0.008094158 -0.0035025936
-0.0040359437 -0.029122574 -0.001178727 -0.0031617754 -0.0051889964 0.0013446348 0.020318624 -0.0070364946
00000000: acd6 07bc a6bd 9a3a 9363 4a3b d670 cfbb
00000010: fbd8 453c 31b0 dd3c eae6 993c 9579 0dbc
00000020: 3432 493c 0a9e 11bb dcb1 803b d659 1f3c
00000030: 1d22 09bb e4e5 b03c c89c b9bb e53b 383a
00000040: 2855 d9bb 13f2 033c 1a5e 96bc 55de 73bb
00000050: 38c9 4a3c 2968 7f3c 5c9d 04bc c58b 65bb
00000060: f33f 84bb 7792 eebc 847f 9aba ca35 4fbb
00000070: 7508 aabb 753e b03a 3e73 a63c 6592 e6bb

model_8/tf.math.add_5/Add/y f4 [1, 32]
0.21868695 0.037012924 0.2202195 0.25012246 -0.0023722197 0.009372196 0.24444437 0.2659105
0.2442811 0.24589238 0.064699166 0.21492465 -0.015865127 -0.054354195 0.2207679 -0.02482038
0.039511725 0.25297704 -0.008186022 -0.006577025 0.035879318 -0.0047368393 0.0093788775 -0.0038670334
0.016588118 0.038985733 0.009534166 0.04217396 0.04921591 0.045688234 -0.0351912 0.04427293
00000000: 79ef 5f3e dd9a 173d 3881 613e 0d10 803e
00000010: 3e77 1bbb d78d 193c a04f 7a3e 6c25 883e
00000020: d324 7a3e 36cb 7b3e ff80 843d 3515 5c3e
00000030: 95f7 81bc 81a2 5ebd fb10 623e 1c54 cbbc
00000040: 0cd7 213d 3586 813e aa1e 06bc 1684 d7bb
00000050: 31f6 123d 7d37 9bbb dda9 193c 0e6e 7dbb
00000060: cee3 873c 81af 1f3d 3135 1c3c 9abe 2c3d
00000070: 9f96 493d 9623 3b3d a624 10bd 8857 353d

model_8/tf.math.multiply_10/Mul/y f4 [1, 32]
0.98773485 1.0223229 0.9970919 0.99337584 1.0161116 1.0639334 0.98088723 0.9978645
0.9926781 0.9954195 1.0149354 0.9951942 0.9903163 1.0786272 0.9986489 1.0092167
0.97829306 0.97972715 0.9867127 0.9991963 0.94760656 0.9942547 0.9946228 0.99321234
0.9989014 0.96610177 0.9957135 0.99767137 0.97483754 0.9754648 1.0124956 0.99783117
00000000: 31dc 7c3f 7adb 823f 6a41 7f3f e14d 7e3f
00000010: f20f 823f f82e 883f 6d1b 7b3f 0c74 7f3f
00000020: 2720 7e3f d0d3 7e3f 67e9 813f 0cc5 7e3f
00000030: 5e85 7d3f 7510 8a3f 74a7 7f3f 032e 813f
00000040: 6a71 7a3f 66cf 7a3f 3499 7c3f 54cb 7f3f
00000050: 5896 723f 7a87 7e3f 9a9f 7e3f 2a43 7e3f
00000060: 01b8 7f3f 7252 773f 14e7 7e3f 6467 7f3f
00000070: f48e 793f 10b8 793f 7599 813f dd71 7f3f

model_8/tf.math.multiply_22/Mul/y f4 [1, 32]
1.2032014 1.021105 1.2070854 1.286249 0.99934673 1.0041878 1.2532444 1.3308501
1.2543923 1.2708439 1.0810015 1.1938357 0.98792213 0.94461375 1.2183197 0.9679417
1.0635433 1.2992113 0.9976105 0.99194497 1.0317792 0.9978295 1.0161618 0.99772334
1.0242069 1.0575056 1.0107431 1.0793866 1.0901985 1.0634509 0.97060794 1.0666025
00000000: 8102 9a3f 92b3 823f c681 9a3f cfa3 a43f
00000010: 30d5 7f3f 3a89 803f 506a a03f 4c59 aa3f
00000020: ed8f a03f 03ab a23f 425e 8a3f 9ccf 983f
00000030: 77e8 7c3f 35d2 713f e6f1 9b3f 07cb 773f
00000040: 3022 883f 8e4c a63f 6763 7f3f 1bf0 7d3f
00000050: 5711 843f c171 7f3f 9711 823f cc6a 7f3f
00000060: 3619 833f 585c 873f 0860 813f 5729 8a3f
00000070: a08b 8b3f 291f 883f c379 783f 6e86 883f
